Video-master/app/src/main/assets/colormatch.tflite (tflite, 1192 bytes, 3 tensors)

sequential/dense/BiasAdd/ReadVariableOp/resource f4 [4]
00000000: 93cd 953f d860 6b3f 5f90 0440 58e6 d7bf
1.1703361 0.91944647 2.0713117 -1.686717

sequential/dense/MatMul f4 [4, 4]
00000000: 4487 e53e bd64 783f 35d3 1f3f f9aa 4e3e
00000010: 7f58 893f 6cc7 933f 6714 ce3c 0cc6 613e
00000020: f1e2 1840 8037 86bf fcc1 18be 6d57 3ebf
00000030: 40f9 ffbf a68b 843e 0a5a 1ebf b36f 9abe
0.44829762 0.97028714 0.6243165 0.20182408 1.0730132 1.1545234 0.025156213 0.22048205
2.3888514 -1.0485687 -0.14917749 -0.7435215 -1.999794 0.25887793 -0.6185614 -0.30163345

sequential/dense_1/MatMul f4 [1, 4]
00000000: d5f0 a23e 62ce 143e 6d79 9a3f 5ccb 66bf
0.31824365 0.14531854 1.2068306 -0.9015405
