Video-master/app/src/main/assets/findmatch.tflite (tflite, 1236 bytes, 3 tensors)

sequential/dense/BiasAdd/ReadVariableOp/resource f4 [5]
0	0xc0b92893	-5.786203
1	0x3fb9b4dc	1.4508319
2	0x3f7ff477	0.999824
3	0x40d98219	6.797131
4	0xc0dead77	-6.958675

sequential/dense/MatMul f4 [5, 5]
0	0x3efb1091	0.49036077
1	0x3ee4e214	0.44703734
2	0x3f0919b8	0.5355487
3	0xbec9b9ec	-0.3939966
4	0x3d9134d4	0.07090154
5	0xbe255cb5	-0.16148646
6	0x3f6908e1	0.91029173
7	0x3f36f73f	0.7147102
8	0xbe6f2d6f	-0.23357175
9	0x3f9dd3f2	1.2330306
10	0x3ecd004a	0.40039283
11	0x3dd81563	0.10550954
12	0x3e8bb79a	0.27288514
13	0xbef6da6c	-0.48213518
14	0xbdf3e9f0	-0.119098544
15	0x3f0ffd61	0.56246
16	0xbd8a4614	-0.067516476
17	0xbf5a4099	-0.8525482
18	0x3ede7fd9	0.43456915
19	0xbe4918d9	-0.19638385
20	0x3e622666	0.2208496
21	0x3fad1c44	1.3524251
22	0x3f3e75d4	0.7439854
23	0xbeaaf5e3	-0.33390722
24	0xbe08cecc	-0.13360137

sequential/dense_1/MatMul f4 [1, 5]
0	0xbed55445	-0.41665855
1	0x3d174f3b	0.036940794
2	0x3e1cf795	0.1532882
3	0x3fa354b6	1.2760227
4	0xbf40f211	-0.75369364
